…
===========================================
INFO:root:Device: cuda
INFO:root:Reading data from "data/", dataset = "Grocery_and_Gourmet_Food" 
INFO:root:Counting dataset statistics...
INFO:root:"# user": 14681, "# item": 8713, "# entry": 151254
INFO:root:Appending history info...
INFO:root:Constructing relation triplets...
INFO:root:Item-item relations:['r_complement', 'r_substitute']
INFO:root:Attribute-based relations:['i_category']
INFO:root:"# relation": 4, "# triplet": 373741
INFO:root:Save corpus to data/Grocery_and_Gourmet_Food\KDAReader.pkl
INFO:root:#params: 1530962
INFO:root:KDA(
  (user_embeddings): Embedding(14682, 64)
  (entity_embeddings): Embedding(8771, 64)
  (relation_embeddings): Embedding(4, 64)
  (relational_dynamic_aggregation): RelationalDynamicAggregation(
    (relation_embeddings): Embedding(4, 64)
    (freq_real): Embedding(4, 33)
    (freq_imag): Embedding(4, 33)
  )
  (attn_head): MultiHeadAttention(
    (q_linear): Linear(in_features=64, out_features=64, bias=False)
    (k_linear): Linear(in_features=64, out_features=64, bias=False)
    (v_linear): Linear(in_features=64, out_features=64, bias=False)
  )
  (W1): Linear(in_features=64, out_features=64, bias=True)
  (W2): Linear(in_features=64, out_features=64, bias=True)
  (dropout_layer): Dropout(p=0, inplace=False)
  (layer_norm): LayerNorm((64,), eps=1e-05, elementwise_affine=True)
  (item_bias): Embedding(8714, 1)
)
INFO:root:Test Before Training: (HR@5:0.0000,NDCG@5:0.0000,HR@10:0.0000,NDCG@10:0.0000,HR@20:0.0000,NDCG@20:0.0000,HR@50:0.0000,NDCG@50:0.0000)
INFO:root:Optimizer: Adam
INFO:root:Epoch 1     loss=2.3860 [22.6 s]	dev=(HR@5:0.2424,NDCG@5:0.1585) [21.1 s] *
INFO:root:Epoch 2     loss=2.3492 [21.4 s]	dev=(HR@5:0.2430,NDCG@5:0.1584) [20.8 s]
INFO:root:Epoch 3     loss=2.3180 [21.3 s]	dev=(HR@5:0.2455,NDCG@5:0.1590) [20.8 s] *
…
